…
Get 1291  C:/Users/deeon/OneDrive/Documents/MFCC_GT/Audio\EADGBE_98.wav
Get 1292  C:/Users/deeon/OneDrive/Documents/MFCC_GT/Audio\EADGBE_99.wav
Calculated 1292 Durations
Duration Average:  1.9916847616239475
Specgram array shape:  (72, 173)
4 classes: DADGBE, DAEGAD, DGDGBD, EADGBE
Labels: {'EADGBE', 'DADGBE', 'DAEGAD', 'DGDGBD'}
Encoded Classes:  {0, 1, 2, 3}
TEST_SET (323,)
_________________________________________________________________
Layer (type)                 Output Shape              Param #
=================================================================
conv2d_1 (Conv2D)            (None, 70, 171, 12)       120
_________________________________________________________________
max_pooling2d_1 (MaxPooling2 (None, 35, 85, 12)        0
_________________________________________________________________
dropout_1 (Dropout)          (None, 35, 85, 12)        0
_________________________________________________________________
conv2d_2 (Conv2D)            (None, 33, 83, 8)         872
_________________________________________________________________
max_pooling2d_2 (MaxPooling2 (None, 16, 41, 8)         0
_________________________________________________________________
dropout_2 (Dropout)          (None, 16, 41, 8)         0
_________________________________________________________________
flatten_1 (Flatten)          (None, 5248)              0
_________________________________________________________________
dense_1 (Dense)              (None, 16)                83984
_________________________________________________________________
dense_2 (Dense)              (None, 4)                 68
=================================================================
Total params: 85,044
Trainable params: 85,044
Non-trainable params: 0
_________________________________________________________________
Epoch 1/30
(1, 72, 173, 1)
(1, 72, 173, 1)
(1, 72, 173, 1)
2019-05-09 05:13:35.514860: I T:\src\github\tensorflow\tensorflow\core\common_runtime\gpu\gpu_device.cc:1471] Adding visible gpu devices: 0
…
